Real-Time-Assistant-for-Women-Safety-RAWS/chatbot_complete/data.pth (torch, 4375 bytes, 6 tensors)

l1.weight f4 [8, 42]
000000 35 62 52 3f 0f de 92 bd 2f fb 80 be 37 82 38 bf
       0.821811 -0.071712606 -0.25191638 -0.7207369
000010 08 52 15 bd 1e 91 a9 be 7f 50 0a be 33 13 03 bf
       -0.036455184 -0.33118528 -0.1350727 -0.5120117
000020 a1 f5 07 be ca 0a e1 be ea 2c a9 be ce 1e 6c bf
       -0.13277294 -0.43953544 -0.3304208 -0.92234504
000030 c9 8f 53 3f 02 c7 68 bf e2 ee 46 be 39 23 76 bd
       0.82641274 -0.9092866 -0.19427064 -0.060092185
000040 c2 89 73 bf fb 92 98 be 68 3a 5b bd f7 d1 3b be
       -0.95132077 -0.29799637 -0.053522497 -0.18341814
000050 f0 06 18 be f3 04 00 be 52 52 38 3d 49 6d 75 3c
       -0.14846396 -0.12501888 0.04500038 0.014979669
000060 e9 2d 3f be b5 33 5e be 02 c1 66 bc 93 bc 81 3d
       -0.18669857 -0.21699412 -0.014084103 0.06334796
000070 1d b0 aa be 42 60 97 3f a6 29 26 3f 39 20 ba bd
       -0.3333749 1.182625 0.649073 -0.09088177
000080 c9 42 81 be 57 51 45 be 15 20 56 3d ae aa 31 3c
       -0.25246266 -0.1926931 0.05227669 0.010843916
000090 9a ce 97 bd e4 55 2e be e2 b6 53 be e2 7a eb bd
       -0.07412453 -0.17024952 -0.20675233 -0.114980474
0000a0 11 dc 86 be 65 0d 47 3e 28 10 b2 3d 10 cd 92 3e
       -0.26339772 0.19438703 0.08694488 0.28672075
0000b0 7b 73 cd be ab 10 f1 be ef 4f 68 3e 1f 3e ff be
       -0.40127167 -0.4708303 0.22686742 -0.49852082
0000c0 cb e6 c3 3e ee 78 49 be d3 cd f5 3e ca 4b 9a be
       0.3826202 -0.19675037 0.48008594 -0.30135947
0000d0 1d 2e ff be 76 3d ff be e0 f2 82 3e fc 33 ff be
       -0.4983987 -0.49851578 0.25575924 -0.49844348
0000e0 91 f0 d8 3e d9 96 b0 3e a4 16 27 b9 11 84 d9 3d
       0.42371038 0.34490088 -0.00015934795 0.10620893
0000f0 be 6f 4b be f8 33 08 3e d1 7c c4 bc 9d 78 69 3e
       -0.19866845 0.13301075 -0.023985298 0.22799917
000100 a9 b6 84 3e 7a 45 1d 3f a6 c1 b6 3e 5a 43 59 be
       0.2592061 0.6143414 0.35694617 -0.21217099
000110 fc 25 da 3e 31 c3 ef 3e b4 cd 85 3e 01 66 18 3f
       0.42607105 0.46828607 0.26133502 0.59530646
000120 ae a4 b4 bd 9e 28 af 3e e8 06 20 be 0b 30 a0 3e
       -0.08820473 0.34210676 -0.15627635 0.31286654
000130 d7 7c 4a 3f 9e 5f 91 3e c7 60 08 3e c2 c4 a9 3e
       0.7909674 0.28393263 0.13318168 0.33157927
000140 b3 79 64 3e 12 92 b7 3e 87 8b fa 3d 4e 4f b3 bd
       0.2231205 0.3585363 0.12233644 -0.087553605
000150 30 d0 11 bf e9 50 96 3e 48 d8 b0 be 63 7c 36 be
       -0.56958294 0.29358605 -0.3454001 -0.17820887
000160 d6 26 3e 3e cf b3 17 bf 0a d5 2d 3e 45 05 30 be
       0.18569502 -0.5925874 0.16975799 -0.1718951
000170 05 8f 9e 3e 81 6d 6d be 5c b6 18 bf 3e 9a 18 bf
       0.3096849 -0.23186304 -0.5965326 -0.59610355
000180 d2 f9 8d 3e ba 0e 19 bf 91 d5 2a 3e af 2b a7 3e
       0.2772966 -0.59788096 0.16683032 0.32650515
000190 38 13 52 3f 6b 7c 96 bd 27 c5 13 be 5d 1b a0 3e
       0.82060575 -0.073479496 -0.14430676 0.31270877
0001a0 65 bc b0 3e 15 54 93 3e e4 16 ca bd 66 71 1d 3e
       0.34518734 0.28775087 -0.09867647 0.1537529
0001b0 fc 11 07 3e 0d 73 02 bd 0c c3 50 be 21 5e c5 3e
       0.13190454 -0.031848002 -0.20386904 0.38548377
0001c0 33 53 96 3e 7a 15 19 bf 12 a8 9b be ee b4 1f 3e
       0.2936035 -0.59798396 -0.30401665 0.15596363
0001d0 12 8e 37 be e8 29 11 3e 66 57 29 3e 3e 73 bb bd
       -0.1792529 0.14176142 0.16537246 -0.0915284
0001e0 a5 35 33 3e 15 ad c5 3e a0 a8 82 3e fc 2d 2b be
       0.17500933 0.38608614 0.25519276 -0.1671676
0001f0 8b be 6d 3e 08 05 e2 be f1 51 0a bf ea ee cc 3e
       0.23217218 -0.44144464 -0.5403128 0.40026027
000200 21 ec 8d be 3e 52 55 be 06 68 a8 3e a1 f1 22 bf
       -0.27719215 -0.20832154 0.32891864 -0.63649946
000210 97 d7 82 bd 67 bd 6b be 94 06 48 bd 59 6a d0 be
       -0.06388777 -0.2302147 -0.0488344 -0.40706137
000220 c6 85 20 bf 69 06 23 bf 12 20 08 3f 1c 30 23 bf
       -0.6270412 -0.63681656 0.53173935 -0.63745284
000230 81 14 0f be 30 04 4b be f7 91 ba 3e 96 fb 7c 3d
       -0.13972665 -0.19825816 0.36439487 0.06176337
000240 49 60 05 be b6 bf 88 3e 78 21 3d 3e ea 2b 8c bd
       -0.13025011 0.26708764 0.18469799 -0.068443134
000250 5c 50 52 3e 6f 47 53 be 54 d7 45 be 79 fb b9 bd
       0.20538467 -0.20632719 -0.19320422 -0.09081168
000260 2e aa 70 3e f4 0f 74 bd e1 25 3c 3e e1 33 23 bf
       0.23502418 -0.059585527 0.18373825 -0.63751036
000270 a8 da 20 bf 5c d4 ce 3e 40 ca d7 be 22 e8 08 3e
       -0.6283364 0.40396392 -0.42146492 0.13369802
000280 a5 d7 95 be b9 4e 9e 3e 02 d2 81 3e 33 ab 58 3e
       -0.29266086 0.30919436 0.25355536 0.21159057
000290 ad 21 1b 3d 3d dc 96 3e b0 f1 24 3e 5c 84 94 be
       0.037873913 0.29464903 0.16107821 -0.29007232
0002a0 9c 3b 47 3f 1d a3 84 3e ef 2e bc 3e 5c a6 10 3f
       0.7782533 0.25905696 0.36754557 0.56503844
0002b0 dd 04 32 3e ca 72 8b 3f b1 1c 22 3d 7a ee 1c 3f
       0.17384668 1.0894406 0.039578144 0.61301386
0002c0 56 80 36 be 02 1c fa 3e 1e 4f 8e 3f 4c f1 07 3f
       -0.17822394 0.48849493 1.1117895 0.53102565
0002d0 4c 7e 20 be 11 04 0a 3f bd 09 04 3e dc 7c 3e be
       -0.15673178 0.53912455 0.1289434 -0.18602318
0002e0 71 4a 1c 3f d5 85 81 bd 82 60 0c 3f 5d 16 8e 3e
       0.6105109 -0.063243546 0.5483476 0.27751437
0002f0 e2 45 e1 3d 1a d6 d0 bd b4 58 93 be 5e 3f 18 be
       0.10999657 -0.10197087 -0.28778613 -0.14867923
000300 c8 c9 84 3d c1 39 2e 3f a9 6d 15 bd 04 12 46 bc
       0.06483799 0.68056875 -0.036481533 -0.012089256
000310 50 e7 ae 3e 27 23 9a 3f af bc 56 3f 36 71 94 3d
       0.34160852 1.2041978 0.8388166 0.07248156
000320 17 01 fe 3e 28 30 7e 3e f0 49 fa bd 29 37 0d be
       0.49610206 0.24823058 -0.12221134 -0.13790573
000330 8a 86 83 3e a4 7d a7 3e d1 a6 58 3e 83 0e 93 bd
       0.25688583 0.32713044 0.21157385 -0.07180502
000340 f6 80 73 3e e1 a1 4b 3f cc 2d 38 be 82 da f3 3e
       0.23779663 0.7954388 -0.1798622 0.47627646
000350 2f 0f 45 bd e3 56 4b be 9a 67 d6 3e f7 c7 64 3f
       -0.048110183 -0.19857363 0.41875917 0.8936762
000360 20 33 7b be f6 4e 68 be be aa 51 be c9 08 9e be
       -0.24531221 -0.22686371 -0.20475289 -0.30866078
000370 a7 ab 65 3f e3 14 09 bf ff 90 a0 bd 67 1f 09 bf
       0.89715046 -0.53547496 -0.07840156 -0.5356354
000380 d9 0c 8b be 0c 1e a6 3c 1c f6 8a 3f 46 b8 89 be
       -0.2715824 0.020278 1.0856357 -0.26898402
000390 c2 60 1d 3f 79 d0 9d 3e 91 e5 aa 3e 1c aa 9a 3c
       0.61475766 0.30823115 0.3337827 0.018879943
0003a0 9a 66 8d bd 0e ff 5a be 0d 68 b5 bd 65 fc fa 3e
       -0.06904335 -0.21386358 -0.08857737 0.49020687
0003b0 50 43 26 be 87 26 54 be e7 27 9e 3e 45 03 f1 be
       -0.16236615 -0.20717822 0.30889818 -0.47072807
0003c0 1a 30 62 be a2 c8 7b 3e a7 10 60 be 1e 52 e2 3e
       -0.22088662 0.24588254 -0.21881352 0.44203275
0003d0 12 ab a0 bd 96 2a d5 bd 97 15 9b 3e 0d 1d 14 3f
       -0.07845129 -0.10408513 0.3028991 0.5785683
0003e0 9e 28 8d 3e d0 bb 4a be a2 9d cd 3e 19 b4 84 bd
       0.2757005 -0.19798207 0.40159327 -0.064796634
0003f0 78 e1 5e 3d c6 5c 38 be 8b 9c 01 3e ae 9c 52 be
       0.054414243 -0.1800414 0.12657373 -0.20567581

l1.bias f4 [8]
000000 f8 7b 73 3f 5e a6 fe 3e 43 a6 18 3f 25 bc 22 3f
       0.95111036 0.49736303 0.59628695 0.63568336
000010 1e a0 e9 3e 2b 1a 09 3f 7e ac cf 3e d6 fa 61 3f
       0.45629972 0.53555554 0.4056129 0.8827337

l2.weight f4 [8, 8]
000000 f3 63 94 be 57 85 17 3f ec 55 98 3f 51 b4 bd 3e
       -0.28982505 0.59187835 1.1901221 0.37051633
000010 74 ff 02 bf 5f f6 dc 3e 18 ec 70 3f c6 86 2c 3f
       -0.5117104 0.43156716 0.9411025 0.6739315
000020 de c5 c2 3e 9c 76 27 be 2f e7 3c 3f f1 b0 3a be
       0.38041586 -0.1635384 0.7379026 -0.1823156
000030 5a 49 d3 3f ad 80 be 3f 47 d5 86 bf 45 a0 62 3f
       1.650676 1.4883019 -1.0533837 0.885258
000040 ea 13 c8 3f d2 5a ea 3e e8 2a 2d be 43 9b 0a 3f
       1.5631077 0.45772415 -0.16910899 0.5414316
000050 c4 1d ee be 8f 57 0f bf 5c 53 32 3f 0f 2b bd 3d
       -0.46507084 -0.5599298 0.69658446 0.092367284
000060 6d 14 3b bc 35 7e b5 be c1 ad 5e 3f e4 4d 9b 3e
       -0.011418444 -0.3544785 0.8698388 0.30332863
000070 e7 15 1c be 29 1c 43 3e 07 eb 12 bf 72 22 93 3f
       -0.1524273 0.19053711 -0.57389873 1.1494887
000080 4c 1b a9 be 91 89 4e 3e 54 3a 5c 3f dd 97 15 3e
       -0.33028638 0.20169665 0.860265 0.14608712
000090 9a 45 98 bc d6 55 a9 bf e2 38 8d 3f df fb af 3f
       -0.018587876 -1.322932 1.1032984 1.374874
0000a0 45 6f 11 3f 4e d0 b2 be 63 1e a8 bf 1a 07 98 bf
       0.5681041 -0.3492455 -1.3134273 -1.1877167
0000b0 4a b6 ab 3f 8a f4 85 be a0 3c f0 be 6d ef 47 3f
       1.3415005 -0.2616313 -0.46921253 0.7809971
0000c0 c7 d5 b1 3f 72 25 5d 3f 6f 70 00 3f ea ed cd 3e
       1.3893365 0.8638526 0.5017156 0.40220577
0000d0 59 82 f7 3d 02 6e 35 bf 18 89 7c 3f f7 c2 0d bf
       0.12085409 -0.70870984 0.9864669 -0.5537562
0000e0 3b c8 fb 3d 9e a0 80 3e 9a fd 84 3f d1 20 58 3f
       0.1229405 0.2512254 1.0389893 0.84425074
0000f0 04 0e f1 bd 10 64 de 3f e0 a1 33 bf 9d 9c 30 3e
       -0.117702514 1.7374287 -0.70168877 0.17247243

l2.bias f4 [8]
000000 c1 ca 54 be 7e ef 06 3f 3c fe 37 3f 18 9e 27 3f
       -0.2078047 0.52709186 0.71872306 0.65475607
000010 54 b1 1a 3f db f9 61 3f 4d 9e d6 3e d3 65 ec 3d
       0.6042683 0.88271874 0.4191765 0.11542859

l3.weight f4 [6, 8]
000000 48 e7 a4 bd f3 01 b4 be 1e 68 2a 3f bb 62 1f 3f
       -0.08051926 -0.35157737 0.6656512 0.62260026
000010 6b 48 ab 3d 83 c3 8b bf d6 71 80 3e 70 34 d5 3e
       0.08363422 -1.091904 0.2508685 0.4164157
000020 1f 40 22 3f 20 ba c5 bf 0e 2a bb 3e d4 ba 7a bf
       0.6337909 -1.5447426 0.36555523 -0.9794133
000030 3c 80 e8 3e a1 07 ac bf ad e3 26 3f 63 8d db be
       0.45410335 -1.3439828 0.65191156 -0.42881307
000040 ed c3 82 bf a1 8e 44 3e e4 e2 06 3f c7 04 52 bf
       -1.0216042 0.19195034 0.5268996 -0.8203854
000050 60 53 ce bf 34 42 35 3e c4 9b 2e 3f 00 db 65 bf
       -1.6119194 0.17701036 0.6820643 -0.8978729
000060 da ad 62 3f 01 08 bf 3e f5 96 d3 bf 95 74 b2 3e
       0.88546526 0.37310794 -1.6530443 0.3485457
000070 8b 17 03 bf 40 85 b9 bf ac 16 94 bf 9a f7 33 3f
       -0.512078 -1.449379 -1.1569419 0.70299685
000080 db b2 9a bf 5d 5d 5b 3f ab d8 9d bf 28 11 88 3d
       -1.2085832 0.85689336 -1.2331747 0.06643897
000090 97 ed d4 bf 5f 73 e4 3e 0a ef a5 bf df b6 bf 3e
       -1.6635007 0.4461927 -1.2963574 0.37444207
0000a0 57 d7 aa be 0f 39 83 bd 7c 21 0b bf 4f 37 30 3f
       -0.33367416 -0.064073674 -0.5434797 0.68834394
0000b0 b2 10 6e 3f da e5 e8 3e 85 a8 aa bf aa e5 ae bf
       0.92994225 0.45487863 -1.3332678 -1.3663838

l3.bias f4 [6]
000000 fd f4 70 bd a6 b1 86 be 01 a0 63 3d c1 12 87 be
       -0.05882739 -0.2630741 0.055572513 -0.26381496
000010 b8 91 99 3e 6e c4 87 3d
       0.29993987 0.06629263
